…
load the imported model \nmodel =resnet50.ResNet50() #Create a new instance of the model \n\n\nDetails of the model layers\nAfter we load the model we can use summary() to look at the model’s layers and data flow structure.\n\nmodel.summary()\n\nModel: \"resnet50\"\n__________________________________________________________________________________________________\nLayer (type)                    Output Shape         Param #     Connected to                     \n==================================================================================================\ninput_1 (InputLayer)            [(None, 224, 224, 3) 0                                            \n__________________________________________________________________________________________________\nconv1_pad (ZeroPadding2D)       (None, 230, 230, 3)  0           input_1[0][0]                    \n__________________________________________________________________________________________________\nconv1 (Conv2D)                  (None, 112, 112, 64) 9472        conv1_pad[0][0]                  \n__________________________________________________________________________________________________\nbn_conv1 (BatchNormalizationV1) (None, 112, 112, 64) 256         conv1[0][0]                      \n__________________________________________________________________________________________________\nactivation (Activation)         (None, 112, 112, 64) 0           bn_conv1[0][0]                   \n__________________________________________________________________________________________________\npool1_pad (ZeroPadding2D)       (None, 114, 114, 64) 0           activation[0][0]                 \n__________________________________________________________________________________________________\nmax_pooling2d (MaxPooling2D)    (None, 56, 56, 64)   0           pool1_pad[0][0]                  \n__________________________________________________________________________________________________\nres2a_branch2a (Conv2D)         (None, 56, 56, 64)   4160        max_pooling2d[0][0]              \n__________________________________________________________________________________________________\nbn2a_branch2a (BatchNormalizati (None, 56, 56, 64)   256         res2a_branch2a[0][0]             \n__________________________________________________________________________________________________\nactivation_1 (Activation)       (None, 56, 56, 64)   0           bn2a_branch2a[0][0]              \n__________________________________________________________________________________________________\nres2a_branch2b (Conv2D)         (None, 56, 56, 64)   36928       activation_1[0][0]               \n__________________________________________________________________________________________________\nbn2a_branch2b (BatchNormalizati (None, 56, 56, 64)   256         res2a_branch2b[0][0]             \n__________________________________________________________________________________________________\nactivation_2 (Activation)       (None, 56, 56, 64)   0           bn2a_branch2b[0][0]              \n__________________________________________________________________________________________________\nres2a_branch2c (Conv2D)         (None, 56, 56, 256)  16640       activation_2[0][0]               \n__________________________________________________________________________________________________\nres2a_branch1 (Conv2D)          (None, 56, 56, 256)  16640       max_pooling2d[0][0]              \n__________________________________________________________________________________________________\nbn2a_branch2c (BatchNormalizati (None, 56, 56, 256)  1024        res2a_branch2c[0][0]             \n__________________________________________________________________________________________________\nbn2a_branch1 (BatchNormalizatio (None, 56, 56, 256)  1024        res2a_branch1[0][0]              \n__________________________________________________________________________________________________\nadd (Add)                       (None, 56, 56, 256)  0           bn2a_branch2c[0][0]              \n                                                                 bn2a_branch1[0][0]               \n__________________________________________________________________________________________________\nactivation_3 (Activation)       (None, 56, 56, 256)  0           add[0][0]                        \n__________________________________________________________________________________________________\nres2b_branch2a (Conv2D)         (None, 56, 56, 64)   16448       activation_3[0][0]               \n__________________________________________________________________________________________________\nbn2b_branch2a (BatchNormalizati (None, 56, 56, 64)   256         res2b_branch2a[0][0]             \n__________________________________________________________________________________________________\nactivation_4 (Activation)       (None, 56, 56, 64)   0           bn2b_branch2a[0][0]              \n__________________________________________________________________________________________________\nres2b_branch2b (Conv2D)         (None, 56, 56, 64)   36928       activation_4[0][0]               \n__________________________________________________________________________________________________\nbn2b_branch2b (BatchNormalizati (None, 56, 56, 64)   256         res2b_branch2b[0][0]             \n__________________________________________________________________________________________________\nactivation_5 (Activation)       (None, 56, 56, 64)   0           bn2b_branch2b[0][0]              \n__________________________________________________________________________________________________\nres2b_branch2c (Conv2D)         (None, 56, 56, 256)  16640       activation_5[0][0]               \n__________________________________________________________________________________________________\nbn2b_branch2c (BatchNormalizati (None, 56, 56, 256)  1024        res2b_branch2c[0][0]             \n__________________________________________________________________________________________________\nadd_1 (Add)                     (None, 56, 56, 256)  0           bn2b_branch2c[0][0]              \n                                                                 activation_3[0][0]               \n__________________________________________________________________________________________________\nactivation_6 (Activation)       (None, 56, 56, 256)  0           add_1[0][0]                      \n__________________________________________________________________________________________________\nres2c_branch2a (Conv2D)         (None, 56, 56, 64)   16448       activation_6[0][0]               \n__________________________________________________________________________________________________\nbn2c_branch2a (BatchNormalizati (None, 56, 56, 64)   256         res2c_branch2a[0][0]             \n__________________________________________________________________________________________________\nactivation_7 (Activation)       (None, 56, 56, 64)   0           bn2c_branch2a[0][0]              \n__________________________________________________________________________________________________\nres2c_branch2b (Conv2D)         (None, 56, 56, 64)   36928       activation_7[0][0]               \n__________________________________________________________________________________________________\nbn2c_branch2b (BatchNormalizati (None, 56, 56, 64)   256         res2c_branch2b[0][0]             \n__________________________________________________________________________________________________\nactivation_8 (Activation)       (None, 56, 56, 64)   0           bn2c_branch2b[0][0]              \n__________________________________________________________________________________________________\nres2c_branch2c (Conv2D)         (None, 56, 56, 256)  16640       activation_8[0][0]               \n__________________________________________________________________________________________________\nbn2c_branch2c (BatchNormalizati (None, 56, 56, 256)  1024        res2c_branch2c[0][0]             \n__________________________________________________________________________________________________\nadd_2 (Add)                     (None, 56, 56, 256)  0           bn2c_branch2c[0][0]              \n                                                                 activation_6[0][0]               \n__________________________________________________________________________________________________\nactivation_9 (Activation)       (None, 56, 56, 256)  0           add_2[0][0]                      \n__________________________________________________________________________________________________\nres3a_branch2a (Conv2D)         (None, 28, 28, 128)  32896       activation_9[0][0]               \n__________________________________________________________________________________________________\nbn3a_branch2a (BatchNormalizati (None, 28, 28, 128)  512         res3a_branch2a[0][0]             \n__________________________________________________________________________________________________\nactivation_10 (Activation)      (None, 28, 28, 128)  0           bn3a_branch2a[0][0]              \n__________________________________________________________________________________________________\nres3a_branch2b (Conv2D)         (None, 28, 28, 128)  147584      activation_10[0][0]              \n__________________________________________________________________________________________________\nbn3a_branch2b (BatchNormalizati (None, 28, 28, 128)  512         res3a_branch2b[0][0]             \n__________________________________________________________________________________________________\nactivation_11 (Activation)      (None, 28, 28, 128)  0           bn3a_branch2b[0][0]              \n__________________________________________________________________________________________________\nres3a_branch2c (Conv2D)         (None, 28, 28, 512)  66048       activation_11[0][0]              \n__________________________________________________________________________________________________\nres3a_branch1 (Conv2D)          (None, 28, 28, 512)  131584      activation_9[0][0]               \n__________________________________________________________________________________________________\nbn3a_branch2c (BatchNormalizati (None, 28, 28, 512)  2048        res3a_branch2c[0][0]             \n__________________________________________________________________________________________________\nbn3a_branch1 (BatchNormalizatio (None, 28, 28, 512)  2048        res3a_branch1[0][0]              \n__________________________________________________________________________________________________\nadd_3 (Add)                     (None, 28, 28, 512)  0           bn3a_branch2c[0][0]              \n                                                                 bn3a_branch1[0][0]               \n__________________________________________________________________________________________________\nactivation_12 (Activation)      (None, 28, 28, 512)  0           add_3[0][0]                      \n__________________________________________________________________________________________________\nres3b_branch2a (Conv2D)         (None, 28, 28, 128)  65664       activation_12[0][0]              \n__________________________________________________________________________________________________\nbn3b_branch2a (BatchNormalizati (None, 28, 28, 128)  512         res3b_branch2a[0][0]             \n__________________________________________________________________________________________________\nactivation_13 (Activation)      (None, 28, 28, 128)  0           bn3b_branch2a[0][0]              \n__________________________________________________________________________________________________\nres3b_branch2b (Conv2D)         (None, 28, 28, 128)  147584      activation_13[0][0]              \n__________________________________________________________________________________________________\nbn3b_branch2b (BatchNormalizati (None, 28, 28, 128)  512         res3b_branch2b[0][0]             \n__________________________________________________________________________________________________\nactivation_14 (Activation)      (None, 28, 28, 128)  0           bn3b_branch2b[0][0]              \n__________________________________________________________________________________________________\nres3b_branch2c (Conv2D)         (None, 28, 28, 512)  66048       activation_14[0][0]              \n__________________________________________________________________________________________________\nbn3b_branch2c (BatchNormalizati (None, 28, 28, 512)  2048        res3b_branch2c[0][0]             \n__________________________________________________________________________________________________\nadd_4 (Add)                     (None, 28, 28, 512)  0           bn3b_branch2c[0][0]              \n                                                                 activation_12[0][0]              \n__________________________________________________________________________________________________\nactivation_15 (Activation)      (None, 28, 28, 512)  0           add_4[0][0]                      \n__________________________________________________________________________________________________\nres3c_branch2a (Conv2D)         (None, 28, 28, 128)  65664       activation_15[0][0]              \n__________________________________________________________________________________________________\nbn3c_branch2a (BatchNormalizati (None, 28, 28, 128)  512         res3c_branch2a[0][0]             \n__________________________________________________________________________________________________\nactivation_16 (Activation)      (None, 28, 28, 128)  0           bn3c_branch2a[0][0]              \n__________________________________________________________________________________________________\nres3c_branch2b (Conv2D)         (None, 28, 28, 128)  147584      activation_16[0][0]              \n__________________________________________________________________________________________________\nbn3c_branch2b (BatchNormalizati (None, 28, 28, 128)  512         res3c_branch2b[0][0]             \n__________________________________________________________________________________________________\nactivation_17 (Activation)      (None, 28, 28, 128)  0           bn3c_branch2b[0][0]              \n__________________________________________________________________________________________________\nres3c_branch2c (Conv2D)         (None, 28, 28, 512)  66048       activation_17[0][0]              \n__________________________________________________________________________________________________\nbn3c_branch2c (BatchNormalizati (None, 28, 28, 512)  2048        res3c_branch2c[0][0]             \n__________________________________________________________________________________________________\nadd_5 (Add)                     (None, 28, 28, 512)  0           bn3c_branch2c[0][0]              \n                                                                 activation_15[0][0]              \n__________________________________________________________________________________________________\nactivation_18 (Activation)      (None, 28, 28, 512)  0           add_5[0][0]                      \n__________________________________________________________________________________________________\nres3d_branch2a (Conv2D)         (None, 28, 28, 128)  65664       activation_18[0][0]              \n__________________________________________________________________________________________________\nbn3d_branch2a (BatchNormalizati (None, 28, 28, 128)  512         res3d_branch2a[0][0]             \n__________________________________________________________________________________________________\nactivation_19 (Activation)      (None, 28, 28, 128)  0           bn3d_branch2a[0][0]              \n__________________________________________________________________________________________________\nres3d_branch2b (Conv2D)         (None, 28, 28, 128)  147584      activation_19[0][0]              \n__________________________________________________________________________________________________\nbn3d_branch2b (BatchNormalizati (None, 28, 28, 128)  512         res3d_branch2b[0][0]             \n__________________________________________________________________________________________________\nactivation_20 (Activation)      (None, 28, 28, 128)  0           bn3d_branch2b[0][0]              \n__________________________________________________________________________________________________\nres3d_branch2c (Conv2D)         (None, 28, 28, 512)  66048       activation_20[0][0]              \n__________________________________________________________________________________________________\nbn3d_branch2c (BatchNormalizati (None, 28, 28, 512)  2048        res3d_branch2c[0][0]             \n__________________________________________________________________________________________________\nadd_6 (Add)                     (None, 28, 28, 512)  0           bn3d_branch2c[0][0]              \n                                                                 activation_18[0][0]              \n__________________________________________________________________________________________________\nactivation_21 (Activation)      (None, 28, 28, 512)  0           add_6[0][0]                      \n__________________________________________________________________________________________________\nres4a_branch2a (Conv2D)         (None, 14, 14, 256)  131328      activation_21[0][0]              \n__________________________________________________________________________________________________\nbn4a_branch2a (BatchNormalizati (None, 14, 14, 256)  1024        res4a_branch2a[0][0]             \n__________________________________________________________________________________________________\nactivation_22 (Activation)      (None, 14, 14, 256)  0           bn4a_branch2a[0][0]              \n__________________________________________________________________________________________________\nres4a_branch2b (Conv2D)         (None, 14, 14, 256)  590080      activation_22[0][0]              \n__________________________________________________________________________________________________\nbn4a_branch2b (BatchNormalizati (None, 14, 14, 256)  1024        res4a_branch2b[0][0]             \n__________________________________________________________________________________________________\nactivation_23 (Activation)      (None, 14, 14, 256)  0           bn4a_branch2b[0][0]              \n__________________________________________________________________________________________________\nres4a_branch2c (Conv2D)         (None, 14, 14, 1024) 263168      activation_23[0][0]              \n__________________________________________________________________________________________________\nres4a_branch1 (Conv2D)          (None, 14, 14, 1024) 525312      activation_21[0][0]              \n__________________________________________________________________________________________________\nbn4a_branch2c (BatchNormalizati (None, 14, 14, 1024) 4096        res4a_branch2c[0][0]             \n__________________________________________________________________________________________________\nbn4a_branch1 (BatchNormalizatio (None, 14, 14, 1024) 4096        res4a_branch1[0][0]              \n__________________________________________________________________________________________________\nadd_7 (Add)                     (None, 14, 14, 1024) 0           bn4a_branch2c[0][0]              \n                                                                 bn4a_branch1[0][0]               \n__________________________________________________________________________________________________\nactivation_24 (Activation)      (None, 14, 14, 1024) 0           add_7[0][0]                      \n__________________________________________________________________________________________________\nres4b_branch2a (Conv2D)         (None, 14, 14, 256)  262400      activation_24[0][0]              \n__________________________________________________________________________________________________\nbn4b_branch2a (BatchNormalizati (None, 14, 14, 256)  1024        res4b_branch2a[0][0]             \n__________________________________________________________________________________________________\nactivation_25 (Activation)      (None, 14, 14, 256)  0           bn4b_branch2a[0][0]              \n__________________________________________________________________________________________________\nres4b_branch2b (Conv2D)         (None, 14, 14, 256)  590080      activation_25[0][0]              \n__________________________________________________________________________________________________\nbn4b_branch2b (BatchNormalizati (None, 14, 14, 256)  1024        res4b_branch2b[0][0]             \n__________________________________________________________________________________________________\nactivation_26 (Activation)      (None, 14, 14, 256)  0           bn4b_branch2b[0][0]              \n__________________________________________________________________________________________________\nres4b_branch2c (Conv2D)         (None, 14, 14, 1024) 263168      activation_26[0][0]              \n__________________________________________________________________________________________________\nbn4b_branch2c (BatchNormalizati (None, 14, 14, 1024) 4096        res4b_branch2c[0][0]             \n__________________________________________________________________________________________________\nadd_8 (Add)                     (None, 14, 14, 1024) 0           bn4b_branch2c[0][0]              \n                                                                 activation_24[0][0]              \n__________________________________________________________________________________________________\nactivation_27 (Activation)      (None, 14, 14, 1024) 0           add_8[0][0]                      \n__________________________________________________________________________________________________\nres4c_branch2a (Conv2D)         (None, 14, 14, 256)  262400      activation_27[0][0]              \n__________________________________________________________________________________________________\nbn4c_branch2a (BatchNormalizati (None, 14, 14, 256)  1024        res4c_branch2a[0][0]             \n__________________________________________________________________________________________________\nactivation_28 (Activation)      (None, 14, 14, 256)  0           bn4c_branch2a[0][0]              \n__________________________________________________________________________________________________\nres4c_branch2b (Conv2D)         (None, 14, 14, 256)  590080      activation_28[0][0]              \n__________________________________________________________________________________________________\nbn4c_branch2b (BatchNormalizati (None, 14, 14, 256)  1024        res4c_branch2b[0][0]             \n__________________________________________________________________________________________________\nactivation_29 (Activation)      (None, 14, 14, 256)  0           bn4c_branch2b[0][0]              \n__________________________________________________________________________________________________\nres4c_branch2c (Conv2D)         (None, 14, 14, 1024) 263168      activation_29[0][0]              \n__________________________________________________________________________________________________\nbn4c_branch2c (BatchNormalizati (None, 14, 14, 1024) 4096        res4c_branch2c[0][0]             \n__________________________________________________________________________________________________\nadd_9 (Add)                     (None, 14, 14, 1024) 0           bn4c_branch2c[0][0]              \n                                                                 activation_27[0][0]              \n__________________________________________________________________________________________________\nactivation_30 (Activation)      (None, 14, 14, 1024) 0           add_9[0][0]                      \n__________________________________________________________________________________________________\nres4d_branch2a (Conv2D)         (None, 14, 14, 256)  262400      activation_30[0][0]              \n__________________________________________________________________________________________________\nbn4d_branch2a (BatchNormalizati (None, 14, 14, 256)  1024        res4d_branch2a[0][0]             \n__________________________________________________________________________________________________\nactivation_31 (Activation)      (None, 14, 14, 256)  0           bn4d_branch2a[0][0]              \n__________________________________________________________________________________________________\nres4d_branch2b (Conv2D)         (None, 14, 14, 256)  590080      activation_31[0][0]              \n__________________________________________________________________________________________________\nbn4d_branch2b (BatchNormalizati (None, 14, 14, 256)  1024        res4d_branch2b[0][0]             \n__________________________________________________________________________________________________\nactivation_32 (Activation)      (None, 14, 14, 256)  0           bn4d_branch2b[0][0]              \n__________________________________________________________________________________________________\nres4d_branch2c (Conv2D)         (None, 14, 14, 1024) 263168      activation_32[0][0]              \n__________________________________________________________________________________________________\nbn4d_branch2c (BatchNormalizati (None, 14, 14, 1024) 4096        res4d_branch2c[0][0]             \n__________________________________________________________________________________________________\nadd_10 (Add)                    (None, 14, 14, 1024) 0           bn4d_branch2c[0][0]              \n                                                                 activation_30[0][0]              \n__________________________________________________________________________________________________\nactivation_33 (Activation)      (None, 14, 14, 1024) 0           add_10[0][0]                     \n__________________________________________________________________________________________________\nres4e_branch2a (Conv2D)         (None, 14, 14, 256)  262400      activation_33[0][0]              \n__________________________________________________________________________________________________\nbn4e_branch2a (BatchNormalizati (None, 14, 14, 256)  1024        res4e_branch2a[0][0]             \n__________________________________________________________________________________________________\nactivation_34 (Activation)      (None, 14, 14, 256)  0           bn4e_branch2a[0][0]              \n__________________________________________________________________________________________________\nres4e_branch2b (Conv2D)         (None, 14, 14, 256)  590080      activation_34[0][0]              \n__________________________________________________________________________________________________\nbn4e_branch2b (BatchNormalizati (None, 14, 14, 256)  1024        res4e_branch2b[0][0]             \n__________________________________________________________________________________________________\nactivation_35 (Activation)      (None, 14, 14, 256)  0           bn4e_branch2b[0][0]              \n__________________________________________________________________________________________________\nres4e_branch2c (Conv2D)         (None, 14, 14, 1024) 263168      activation_35[0][0]              \n__________________________________________________________________________________________________\nbn4e_branch2c (BatchNormalizati (None, 14, 14, 1024) 4096        res4e_branch2c[0][0]             \n__________________________________________________________________________________________________\nadd_11 (Add)                    (None, 14, 14, 1024) 0           bn4e_branch2c[0][0]              \n                                                                 activation_33[0][0]              \n__________________________________________________________________________________________________\nactivation_36 (Activation)      (None, 14, 14, 1024) 0           add_11[0][0]                     \n__________________________________________________________________________________________________\nres4f_branch2a (Conv2D)         (None, 14, 14, 256)  262400      activation_36[0][0]              \n__________________________________________________________________________________________________\nbn4f_branch2a (BatchNormalizati (None, 14, 14, 256)  1024        res4f_branch2a[0][0]             \n__________________________________________________________________________________________________\nactivation_37 (Activation)      (None, 14, 14, 256)  0           bn4f_branch2a[0][0]              \n__________________________________________________________________________________________________\nres4f_branch2b (Conv2D)         (None, 14, 14, 256)  590080      activation_37[0][0]              \n__________________________________________________________________________________________________\nbn4f_branch2b (BatchNormalizati (None, 14, 14, 256)  1024        res4f_branch2b[0][0]             \n__________________________________________________________________________________________________\nactivation_38 (Activation)      (None, 14, 14, 256)  0           bn4f_branch2b[0][0]              \n__________________________________________________________________________________________________\nres4f_branch2c (Conv2D)         (None, 14, 14, 1024) 263168      activation_38[0][0]              \n__________________________________________________________________________________________________\nbn4f_branch2c (BatchNormalizati (None, 14, 14, 1024) 4096        res4f_branch2c[0][0]             \n__________________________________________________________________________________________________\nadd_12 (Add)                    (None, 14, 14, 1024) 0           bn4f_branch2c[0][0]              \n                                                                 activation_36[0][0]              \n__________________________________________________________________________________________________\nactivation_39 (Activation)      (None, 14, 14, 1024) 0           add_12[0][0]                     \n__________________________________________________________________________________________________\nres5a_branch2a (Conv2D)         (None, 7, 7, 512)    524800      activation_39[0][0]              \n__________________________________________________________________________________________________\nbn5a_branch2a (BatchNormalizati (None, 7, 7, 512)    2048        res5a_branch2a[0][0]             \n__________________________________________________________________________________________________\nactivation_40 (Activation)      (None, 7, 7, 512)    0           bn5a_branch2a[0][0]              \n__________________________________________________________________________________________________\nres5a_branch2b (Conv2D)         (None, 7, 7, 512)    2359808     activation_40[0][0]              \n__________________________________________________________________________________________________\nbn5a_branch2b (BatchNormalizati (None, 7, 7, 512)    2048        res5a_branch2b[0][0]             \n__________________________________________________________________________________________________\nactivation_41 (Activation)      (None, 7, 7, 512)    0           bn5a_branch2b[0][0]              \n__________________________________________________________________________________________________\nres5a_branch2c (Conv2D)         (None, 7, 7, 2048)   1050624     activation_41[0][0]              \n__________________________________________________________________________________________________\nres5a_branch1 (Conv2D)          (None, 7, 7, 2048)   2099200     activation_39[0][0]              \n__________________________________________________________________________________________________\nbn5a_branch2c (BatchNormalizati (None, 7, 7, 2048)   8192        res5a_branch2c[0][0]             \n__________________________________________________________________________________________________\nbn5a_branch1 (BatchNormalizatio (None, 7, 7, 2048)   8192        res5a_branch1[0][0]              \n__________________________________________________________________________________________________\nadd_13 (Add)                    (None, 7, 7, 2048)   0           bn5a_branch2c[0][0]              \n                                                                 bn5a_branch1[0][0]               \n__________________________________________________________________________________________________\nactivation_42 (Activation)      (None, 7, 7, 2048)   0           add_13[0][0]                     \n__________________________________________________________________________________________________\nres5b_branch2a (Conv2D)         (None, 7, 7, 512)    1049088     activation_42[0][0]              \n__________________________________________________________________________________________________\nbn5b_branch2a (BatchNormalizati (None, 7, 7, 512)    2048        res5b_branch2a[0][0]             \n__________________________________________________________________________________________________\nactivation_43 (Activation)      (None, 7, 7, 512)    0           bn5b_branch2a[0][0]              \n__________________________________________________________________________________________________\nres5b_branch2b (Conv2D)         (None, 7, 7, 512)    2359808     activation_43[0][0]              \n__________________________________________________________________________________________________\nbn5b_branch2b (BatchNormalizati (None, 7, 7, 512)    2048        res5b_branch2b[0][0]             \n__________________________________________________________________________________________________\nactivation_44 (Activation)      (None, 7, 7, 512)    0           bn5b_branch2b[0][0]              \n__________________________________________________________________________________________________\nres5b_branch2c (Conv2D)         (None, 7, 7, 2048)   1050624     activation_44[0][0]              \n__________________________________________________________________________________________________\nbn5b_branch2c (BatchNormalizati (None, 7, 7, 2048)   8192        res5b_branch2c[0][0]             \n__________________________________________________________________________________________________\nadd_14 (Add)                    (None, 7, 7, 2048)   0           bn5b_branch2c[0][0]              \n                                                                 activation_42[0][0]              \n__________________________________________________________________________________________________\nactivation_45 (Activation)      (None, 7, 7, 2048)   0           add_14[0][0]                     \n__________________________________________________________________________________________________\nres5c_branch2a (Conv2D)         (None, 7, 7, 512)    1049088     activation_45[0][0]              \n__________________________________________________________________________________________________\nbn5c_branch2a (BatchNormalizati (None, 7, 7, 512)    2048        res5c_branch2a[0][0]             \n__________________________________________________________________________________________________\nactivation_46 (Activation)      (None, 7, 7, 512)    0           bn5c_branch2a[0][0]              \n__________________________________________________________________________________________________\nres5c_branch2b (Conv2D)         (None, 7, 7, 512)    2359808     activation_46[0][0]              \n__________________________________________________________________________________________________\nbn5c_branch2b (BatchNormalizati (None, 7, 7, 512)    2048        res5c_branch2b[0][0]             \n__________________________________________________________________________________________________\nactivation_47 (Activation)      (None, 7, 7, 512)    0           bn5c_branch2b[0][0]              \n__________________________________________________________________________________________________\nres5c_branch2c (Conv2D)         (None, 7, 7, 2048)   1050624     activation_47[0][0]              \n__________________________________________________________________________________________________\nbn5c_branch2c (BatchNormalizati (None, 7, 7, 2048)   8192        res5c_branch2c[0][0]             \n__________________________________________________________________________________________________\nadd_15 (Add)                    (None, 7, 7, 2048)   0           bn5c_branch2c[0][0]              \n                                                                 activation_45[0][0]              \n__________________________________________________________________________________________________\nactivation_48 (Activation)      (None, 7, 7, 2048)   0           add_15[0][0]                     \n__________________________________________________________________________________________________\navg_pool (GlobalAveragePooling2 (None, 2048)         0           activation_48[0][0]              \n__________________________________________________________________________________________________\nfc1000 (Dense)                  (None, 1000)         2049000     avg_pool[0][0]                   \n==================================================================================================\nTotal params: 25,636,712\nTrainable params: 25,583,592\nNon-trainable params: 53,120\n__________________________________________________________________________________________________"
  },
  {
    "objectID": "projects/Past_projects/ImageRecog_ResNet50.html#load-image-to-predict",
…
